05_LD2410_TFL_Attention_and_Transformers/modelSelfAttention.tflite (tflite, 18384 bytes, 9 tensors)

self_attention_based_classifier/dense_4/MatMul i1 [5, 18] scale=0.004123801 zero_point=0
000000 20 9d 60 d3 71 68 ce fa 5d 19 99 0b f7 6f e3 59
       0.13196163 -0.4082563 0.39588487 -0.18557104 0.4659895 0.4288753 -0.20619005 -0.024742804 0.38351348 0.103095025 -0.4247515 0.04536181 -0.037114207 0.4577419 -0.11959022 0.36701828
000010 70 3f f3 34 25 b0 40 ec 55 f5 f9 61 a6 56 54 1b
       0.4618657 0.25979945 -0.053609412 0.21443765 0.15258063 -0.32990408 0.26392326 -0.08247602 0.35052308 -0.04536181 -0.028866606 0.40000868 -0.3711421 0.3546469 0.34639928 0.111342624
000020 92 07 18 60 27 16 17 29 0d 00 46 ae 42 b6 ce a2
       -0.4536181 0.028866606 0.09897122 0.39588487 0.16082823 0.09072362 0.09484742 0.16907583 0.053609412 0.0 0.28866607 -0.33815166 0.27217087 -0.30516127 -0.20619005 -0.3876373
000030 0a 88 1e ee ef eb 05 47 7f c9 9f de 50 6f af 54
       0.04123801 -0.49485612 0.12371403 -0.07422841 -0.070104614 -0.08659982 0.020619005 0.29278988 0.5237227 -0.22680905 -0.40000868 -0.14020923 0.32990408 0.4577419 -0.3340279 0.34639928
000040 8f d8 41 f1 50 1f 72 5a a3 c8 e4 d8 12 b2 5f 5a
       -0.4659895 -0.16495204 0.26804706 -0.061857015 0.32990408 0.12783782 0.4701133 0.3711421 -0.38351348 -0.23093285 -0.11546642 -0.16495204 0.07422841 -0.32165647 0.3917611 0.3711421
000050 73 bf 2a ce 55 4d 25 f3 5e 07
       0.4742371 -0.26804706 0.17319964 -0.20619005 0.35052308 0.31753266 0.15258063 -0.053609412 0.3876373 0.028866606

self_attention_based_classifier/multi_head_attention_layer/dense_3/BiasAdd/ReadVariableOp i1 [18] scale=0.0006401397 zero_point=6
000000 65 b0 54 fb 4c 7f 80 ca 0d 39 b0 34 a0 48 d9 73
       0.06081327 -0.055052012 0.049930897 -0.0070415363 0.044809777 0.0774569 -0.08577872 -0.03840838 0.0044809775 0.032647125 -0.055052012 0.029446425 -0.06529425 0.042249218 -0.028806286 0.069775224
000010 42 35
       0.03840838 0.030086566

self_attention_based_classifier/multi_head_attention_layer/dense_3/Tensordot/MatMul i1 [18, 18] scale=0.003428717 zero_point=0
000000 e1 00 c9 f5 a5 50 18 5b 04 42 b2 3e 12 d3 d1 17
       -0.10629022 0.0 -0.18857943 -0.037715886 -0.31201324 0.27429736 0.082289204 0.31201324 0.013714868 0.22629532 -0.26743993 0.21258044 0.061716903 -0.15429226 -0.1611497 0.07886049
000010 21 13 8b 89 cf 15 b9 58 97 2e b3 c2 cf 25 50 ec
       0.11314766 0.06514562 -0.40115988 -0.4080173 -0.16800714 0.07200305 -0.2434389 0.3017271 -0.36001527 0.15772098 -0.2640112 -0.21258044 -0.16800714 0.12686253 0.27429736 -0.06857434
000020 ed 61 88 ef cd 42 cb a9 51 bd 3c 25 c4 3c 65 90
       -0.06514562 0.33258554 -0.41144603 -0.058288187 -0.17486456 0.22629532 -0.181722 -0.29829836 0.27772608 -0.22972403 0.20572302 0.12686253 -0.20572302 0.20572302 0.3463004 -0.3840163
000030 1d 3d 3e 17 18 c2 22 99 6e 01 21 7a 56 ee c9 bc
       0.09943279 0.20915173 0.21258044 0.07886049 0.082289204 -0.21258044 0.11657637 -0.35315785 0.37715885 0.003428717 0.11314766 0.41830346 0.29486966 -0.061716903 -0.18857943 -0.23315275
000040 24 e9 5f 06 a1 71 e8 dd dc 99 2c f2 f8 26 01 bc
       0.123433806 -0.07886049 0.32572812 0.020572301 -0.32572812 0.387445 -0.082289204 -0.12000509 -0.123433806 -0.35315785 0.15086354 -0.04800204 -0.027429735 0.13029124 0.003428717 -0.23315275
000050 3e 56 d8 7b 2e ad 20 a4 65 a3 e5 f9 0d d3 00 c4
       0.21258044 0.29486966 -0.13714868 0.4217322 0.15772098 -0.2845835 0.10971894 -0.31544197 0.3463004 -0.31887066 -0.09257536 -0.02400102 0.04457332 -0.15429226 0.0 -0.20572302
000060 07 cc 3a e3 bf 28 e6 ed bf 0d fd 94 57 ee 05 96
       0.02400102 -0.17829327 0.19886558 -0.09943279 -0.2228666 0.13714868 -0.08914664 -0.06514562 -0.2228666 0.04457332 -0.0102861505 -0.37030143 0.29829836 -0.061716903 0.017143585 -0.363444
000070 37 7f 62 ac d9 db b1 ff 22 78 6d d8 fe b7 34 e7
       0.18857943 0.43544704 0.33601427 -0.2880122 -0.13371997 -0.12686253 -0.27086863 -0.003428717 0.11657637 0.41144603 0.37373015 -0.13714868 -0.006857434 -0.25029632 0.17829327 -0.085717924
000080 4a 94 41 1d 39 9a e4 50 08 6e 41 70 53 ae cc 24
       0.25372505 -0.37030143 0.2228666 0.09943279 0.19543687 -0.34972912 -0.09600408 0.27429736 0.027429735 0.37715885 0.2228666 0.3840163 0.2845835 -0.28115478 -0.17829327 0.123433806
000090 23 dc 3a bd a7 f9 4c de 8a 46 ed 23 36 eb f2 72
       0.12000509 -0.123433806 0.19886558 -0.22972403 -0.3051558 -0.02400102 0.26058248 -0.11657637 -0.4045886 0.24001019 -0.06514562 0.12000509 0.18515071 -0.07200305 -0.04800204 0.39087373
0000a0 d9 de a9 6e b7 8a 8d 42 f3 49 e2 bb 24 0c 3f 5c
       -0.13371997 -0.11657637 -0.29829836 0.37715885 -0.25029632 -0.4045886 -0.39430246 0.22629532 -0.04457332 0.25029632 -0.10286151 -0.23658146 0.123433806 0.041144602 0.21600917 0.31544197
0000b0 69 c2 9b 3a 23 cc 00 3d 56 f7 66 55 3e 3b f0 d3
       0.36001527 -0.21258044 -0.3463004 0.19886558 0.12000509 -0.17829327 0.0 0.20915173 0.29486966 -0.030858452 0.34972912 0.29144093 0.21258044 0.2022943 -0.05485947 -0.15429226
0000c0 87 c6 ed 8d cb 1b db fa d5 a0 cb 33 3a 23 d9 e1
       -0.41487473 -0.19886558 -0.06514562 -0.39430246 -0.181722 0.09257536 -0.12686253 -0.020572301 -0.14743483 -0.32915682 -0.181722 0.17486456 0.19886558 0.12000509 -0.13371997 -0.10629022
0000d0 65 52 b5 06 ed 2f 46 56 51 f5 1f 8d 54 6e 3e 38
       0.3463004 0.28115478 -0.25715378 0.020572301 -0.06514562 0.1611497 0.24001019 0.29486966 0.27772608 -0.037715886 0.10629022 -0.39430246 0.2880122 0.37715885 0.21258044 0.19200815
0000e0 cf a1 d0 b8 95 89 96 9f 4b 8e 28 0f ec 5a 66 c2
       -0.16800714 -0.32572812 -0.16457841 -0.24686761 -0.3668727 -0.4080173 -0.363444 -0.33258554 0.25715378 -0.39087373 0.13714868 0.051430754 -0.06857434 0.3085845 0.34972912 -0.21258044
0000f0 56 fd 4f 8e b0 cb 89 0c 37 48 23 b9 f2 48 45 4c
       0.29486966 -0.0102861505 0.27086863 -0.39087373 -0.27429736 -0.181722 -0.4080173 0.041144602 0.18857943 0.24686761 0.12000509 -0.2434389 -0.04800204 0.24686761 0.23658146 0.26058248

self_attention_based_classifier/multi_head_attention_layer/dense/BiasAdd/ReadVariableOp i1 [18] scale=0.0002653214 zero_point=-30
000000 80 c9 8d 05 21 d3 7f 04 ef 26 ed e9 ae 35 ad 41
       -0.026001498 -0.006633035 -0.022552319 0.009286249 0.016715249 -0.003979821 0.04165546 0.009020927 0.0034491783 0.018041855 0.0029185354 0.0018572498 -0.013796713 0.022021677 -0.014062034 0.025205534
000010 f8 ee
       0.0058370708 0.0031838568

self_attention_based_classifier/multi_head_attention_layer/dense/Tensordot/MatMul i1 [18, 18] scale=0.0032714733 zero_point=0
000000 d2 31 2f b1 55 c9 d3 8a 3a 16 ac 64 34 75 54 a5
       -0.15048778 0.16030219 0.15375924 -0.2584464 0.27807525 -0.17993103 -0.1472163 -0.38603386 0.18974546 0.071972415 -0.27480376 0.32714733 0.17011662 0.38276237 0.27480376 -0.29770407
000010 36 ae 2b 56 20 ff 59 a2 6b 6d 94 d8 c6 d9 23 e3
       0.17665955 -0.2682608 0.14067335 0.2813467 0.10468715 -0.0032714733 0.29116112 -0.30751848 0.35004765 0.3565906 -0.3533191 -0.13085893 -0.18974546 -0.12758747 0.114501566 -0.09487273
000020 57 61 e8 e2 c1 49 2f 02 09 ae f2 81 65 cc 0a 94
       0.28461817 0.31733292 -0.07851536 -0.0981442 -0.20610282 0.23881756 0.15375924 0.0065429467 0.02944326 -0.2682608 -0.045800626 -0.41547713 0.3304188 -0.17011662 0.032714732 -0.3533191
000030 20 29 dc 24 8c a1 aa 9b bc e5 57 31 7f 4c 67 5e
       0.10468715 0.1341304 -0.11777304 0.11777304 -0.3794909 -0.31078997 -0.2813467 -0.3304188 -0.22246018 -0.08832978 0.28461817 0.16030219 0.41547713 0.24863197 0.33696175 0.30751848
000040 b4 c5 d4 99 e8 17 1d 03 e4 2b 40 9c cc e0 cf ca
       -0.24863197 -0.19301693 -0.14394483 -0.33696175 -0.07851536 0.07524389 0.09487273 0.00981442 -0.09160125 0.14067335 0.2093743 -0.32714733 -0.17011662 -0.10468715 -0.16030219 -0.17665955
000050 6c 93 53 72 0d 26 ad 4f 4a 83 ee 19 bc c5 b2 9c
       0.3533191 -0.3565906 0.2715323 0.37294796 0.042529155 0.124315985 -0.2715323 0.2584464 0.24208903 -0.40893418 -0.05888652 0.08178683 -0.22246018 -0.19301693 -0.25517493 -0.32714733
000060 d9 12 01 e7 b0 2a e1 ad be 50 8e e8 36 f7 41 c0
       -0.12758747 0.05888652 0.0032714733 -0.08178683 -0.26171786 0.13740188 -0.10141567 -0.2715323 -0.21591724 0.26171786 -0.37294796 -0.07851536 0.17665955 -0.02944326 0.21264577 -0.2093743
000070 a9 ff 4f d8 0b 04 14 33 b3 4f 0f 1d 94 6a ac 51
       -0.28461817 -0.0032714733 0.2584464 -0.13085893 0.035986207 0.013085893 0.065429464 0.16684514 -0.25190344 0.2584464 0.0490721 0.09487273 -0.3533191 0.3467762 -0.27480376 0.26498935
000080 b6 8f ce 44 13 46 c2 ce 75 c9 cc cb 5d e3 4e d7
       -0.24208903 -0.3696765 -0.16357367 0.22246018 0.062157992 0.22900313 -0.20283134 -0.16357367 0.38276237 -0.17993103 -0.17011662 -0.1733881 0.30424702 -0.09487273 0.25517493 -0.1341304
000090 5b bc 2d 8d 92 9d a6 72 3d d0 28 0a ed 98 ac 3c
       0.29770407 -0.22246018 0.1472163 -0.37621942 -0.35986206 -0.32387587 -0.2944326 0.37294796 0.19955987 -0.15703072 0.13085893 0.032714732 -0.062157992 -0.34023324 -0.27480376 0.1962884
0000a0 e9 af ef 91 38 5a dd 77 03 3b cc b2 31 55 cc ca
       -0.07524389 -0.26498935 -0.055615045 -0.36313355 0.1832025 0.2944326 -0.114501566 0.38930532 0.00981442 0.19301693 -0.17011662 -0.25517493 0.16030219 0.27807525 -0.17011662 -0.17665955
0000b0 d7 90 cf c0 5d 23 45 ab a7 08 8b 04 a4 b1 75 c8
       -0.1341304 -0.366405 -0.16030219 -0.2093743 0.30424702 0.114501566 0.22573166 -0.27807525 -0.29116112 0.026171787 -0.38276237 0.013085893 -0.30097556 -0.2584464 0.38276237 -0.1832025
0000c0 5d cd 90 5d e8 77 28 1d b0 b3 7b b2 1b 1f 75 35
       0.30424702 -0.16684514 -0.366405 0.30424702 -0.07851536 0.38930532 0.13085893 0.09487273 -0.26171786 -0.25190344 0.40239123 -0.25517493 0.08832978 0.10141567 0.38276237 0.1733881
0000d0 98 b2 e6 6c 32 b5 cc 65 a6 e4 c0 5c ed 6c a0 9d
       -0.34023324 -0.25517493 -0.08505831 0.3533191 0.16357367 -0.2453605 -0.17011662 0.3304188 -0.2944326 -0.09160125 -0.2093743 0.30097556 -0.062157992 0.3533191 -0.31406143 -0.32387587
0000e0 e8 da 1a 9d f2 1b 30 6c 20 14 dd 0e 99 b7 6a 25
       -0.07851536 -0.124315985 0.08505831 -0.32387587 -0.045800626 0.08832978 0.15703072 0.3533191 0.10468715 0.065429464 -0.114501566 0.045800626 -0.33696175 -0.23881756 0.3467762 0.12104452
0000f0 7d 3a f5 bb 5e 47 7a 09 e7 9d ce 8c 00 fb c9 11
       0.40893418 0.18974546 -0.035986207 -0.22573166 0.30751848 0.2322746 0.39911973 0.02944326 -0.08178683 -0.32387587 -0.16357367 -0.3794909 0.0 -0.016357366 -0.17993103 0.055615045

self_attention_based_classifier/multi_head_attention_layer/dense_2/BiasAdd/ReadVariableOp i1 [18] scale=0.00061500515 zero_point=18
000000 b1 49 cb f2 ca 80 27 43 5a ed 3c 70 27 01 2e 7f
       -0.0596555 0.033825282 -0.043665364 -0.019680165 -0.044280373 -0.089790754 0.012915108 0.030135252 0.044280373 -0.02275519 0.025830217 0.057810485 0.012915108 -0.010455088 0.017220143 0.06703556
000010 37 f3
       0.02275519 -0.01906516

self_attention_based_classifier/multi_head_attention_layer/dense_2/Tensordot/MatMul i1 [18, 18] scale=0.003344229 zero_point=0
000000 e6 b6 12 c8 2e e6 9d 2d da 22 ec 0c 70 d5 cd b2
       -0.08694995 -0.24747294 0.06019612 -0.18727683 0.15383454 -0.08694995 -0.33107868 0.1504903 -0.1270807 0.11370379 -0.06688458 0.04013075 0.37455365 -0.14380184 -0.17055568 -0.26084986
000010 58 c1 05 48 e9 90 28 95 e0 a0 34 e4 8a d3 6b d1
       0.29429215 -0.21068643 0.016721144 0.24078448 -0.07691727 -0.37455365 0.13376915 -0.3578325 -0.10701533 -0.321046 0.1738999 -0.09363841 -0.39461902 -0.1504903 0.3578325 -0.15717876
000020 8f 4d ec ca c6 10 bb 23 f8 39 f4 37 9b 4a 46 46
       -0.37789786 0.25750563 -0.06688458 -0.18058836 -0.19396529 0.053507663 -0.2307518 0.11704801 -0.026753832 0.19062105 -0.04013075 0.18393259 -0.33776712 0.24747294 0.23409602 0.23409602
000030 e2 ca f4 0b de f8 71 07 e2 53 12 f2 10 be d3 90
       -0.100326866 -0.18058836 -0.04013075 0.03678652 -0.11370379 -0.026753832 0.37789786 0.023409603 -0.100326866 0.277571 0.06019612 -0.046819206 0.053507663 -0.22071911 -0.1504903 -0.37455365
000040 fc 47 45 60 c5 a6 e9 c6 9e 40 16 33 ec 63 53 47
       -0.013376916 0.23744026 0.2307518 0.321046 -0.19730951 -0.3009806 -0.07691727 -0.19396529 -0.32773444 0.21403065 0.07357304 0.17055568 -0.06688458 0.33107868 0.277571 0.23744026
000050 06 ff 62 d2 1c 6c 8f fd 27 0d 71 c9 a0 39 a5 d5
       0.020065375 -0.003344229 0.32773444 -0.15383454 0.09363841 0.36117673 -0.37789786 -0.010032687 0.13042493 0.043474976 0.37789786 -0.18393259 -0.321046 0.19062105 -0.30432484 -0.14380184
000060 03 c4 99 30 1b c4 af 17 19 19 f0 5f 52 f3 e8 f4
       0.010032687 -0.20065373 -0.34445557 0.160523 0.09029418 -0.20065373 -0.27088255 0.07691727 0.08360572 0.08360572 -0.053507663 0.31770176 0.27422678 -0.043474976 -0.0802615 -0.04013075
000070 94 b6 bd df d6 ff d7 ac 8d 77 f9 ee c5 4a 2a ce
       -0.36117673 -0.24747294 -0.22406334 -0.11035956 -0.14045762 -0.003344229 -0.13711339 -0.28091523 -0.38458633 0.39796326 -0.023409603 -0.06019612 -0.19730951 0.24747294 0.14045762 -0.16721144
000080 e4 dc 68 43 b7 9a de f7 79 97 c0 48 13 c4 e3 aa
       -0.09363841 -0.12039224 0.3477998 0.22406334 -0.24412872 -0.34111136 -0.11370379 -0.03009806 0.4046517 -0.35114405 -0.21403065 0.24078448 0.06354035 -0.20065373 -0.09698264 -0.28760368
000090 a8 3a 5d b9 68 05 a5 8c 88 db 0f 0c f2 2a d5 b5
       -0.29429215 0.19396529 0.31101328 -0.23744026 0.3477998 0.016721144 -0.30432484 -0.38793057 -0.40130746 -0.12373647 0.050163433 0.04013075 -0.046819206 0.14045762 -0.14380184 -0.25081718
0000a0 05 f1 07 c0 e8 91 98 e5 9d 09 6f 8c d9 18 68 a1
       0.016721144 -0.050163433 0.023409603 -0.21403065 -0.0802615 -0.3712094 -0.3477998 -0.09029418 -0.33107868 0.03009806 0.3712094 -0.38793057 -0.13042493 0.0802615 0.3477998 -0.31770176
0000b0 07 d5 7a 60 5d 3e be db 30 f6 d9 f8 d1 ab 3e f6
       0.023409603 -0.14380184 0.40799594 0.321046 0.31101328 0.20734219 -0.22071911 -0.12373647 0.160523 -0.03344229 -0.13042493 -0.026753832 -0.15717876 -0.28425947 0.20734219 -0.03344229
0000c0 ac 23 c3 6f 3a 07 27 3b e1 fa 45 08 a1 77 c9 b8
       -0.28091523 0.11704801 -0.20399797 0.3712094 0.19396529 0.023409603 0.13042493 0.19730951 -0.103671096 -0.020065375 0.2307518 0.026753832 -0.31770176 0.39796326 -0.18393259 -0.24078448
0000d0 8d e5 4a bb f6 eb 0b 33 a0 07 58 b7 b1 ec 37 3e
       -0.38458633 -0.09029418 0.24747294 -0.2307518 -0.03344229 -0.07022881 0.03678652 0.17055568 -0.321046 0.023409603 0.29429215 -0.24412872 -0.2641941 -0.06688458 0.18393259 0.20734219
0000e0 d5 3b 60 f3 33 f7 0b 55 f9 47 fd eb b9 9f c2 1e
       -0.14380184 0.19730951 0.321046 -0.043474976 0.17055568 -0.03009806 0.03678652 0.28425947 -0.023409603 0.23744026 -0.010032687 -0.07022881 -0.23744026 -0.3243902 -0.20734219 0.100326866
0000f0 44 c9 e0 60 d5 98 5e 0b 47 40 14 43 3e d8 fe 7f
       0.22740757 -0.18393259 -0.10701533 0.321046 -0.14380184 -0.3477998 0.31435752 0.03678652 0.23744026 0.21403065 0.06688458 0.22406334 0.20734219 -0.13376915 -0.006688458 0.42471707

self_attention_based_classifier/multi_head_attention_layer/dense_1/BiasAdd/ReadVariableOp i1 [18] scale=4.7237274e-05 zero_point=-9
000000 7d 51 9d 80 5c 87 09 97 8c 98 14 bf f5 d4 e7 7f
       0.006329795 0.004251355 -0.004251355 -0.005621236 0.004770965 -0.005290575 0.0008502709 -0.004534778 -0.005054388 -0.004487541 0.001369881 -0.0026452874 -9.447455e-05 -0.0016533046 -0.0007557964 0.006424269
000010 ae d7
       -0.003448321 -0.0015115928

self_attention_based_classifier/multi_head_attention_layer/dense_1/Tensordot/MatMul1 i1 [18, 18] scale=0.003348186 zero_point=0
000000 24 d2 08 26 6e 1a 49 f4 e0 57 44 4c 52 1f b7 32
       0.120534696 -0.15401655 0.026785487 0.12723106 0.36830044 0.08705284 0.24441758 -0.040178232 -0.10714195 0.29129216 0.22767664 0.25446212 0.27455124 0.10379376 -0.24441758 0.1674093
000010 52 63 e4 ac 52 4a ba e4 5e d4 09 a0 a8 1a ed 3a
       0.27455124 0.3314704 -0.0937492 -0.28124762 0.27455124 0.24776576 -0.23437302 -0.0937492 0.31472948 -0.14732018 0.030133674 -0.32142586 -0.29464036 0.08705284 -0.06361553 0.19419478
000020 bf 09 d5 50 b9 e3 40 7d 5d a2 0a 3a e1 ce f4 5e
       -0.21763209 0.030133674 -0.143972 0.26785487 -0.2377212 -0.09709739 0.2142839 0.41852325 0.31138128 -0.31472948 0.03348186 0.19419478 -0.10379376 -0.1674093 -0.040178232 0.31472948
000030 7c 15 59 fa 2a d8 22 5f c6 bc a1 35 57 9a 47 8c
       0.41517505 0.070311904 0.29798853 -0.020089116 0.14062381 -0.13392743 0.11383832 0.31807765 -0.19419478 -0.22767664 -0.31807765 0.17745386 0.29129216 -0.34151497 0.2377212 -0.38838956
000040 20 9f 3b 5d 18 7d 62 c9 70 5c 16 0a 0b 71 e3 dd
       0.10714195 -0.32477403 0.19754297 0.31138128 0.080356464 0.41852325 0.32812223 -0.18415022 0.3749968 0.3080331 0.07366009 0.03348186 0.036830045 0.378345 -0.09709739 -0.11718651
000050 4a 00 62 af 09 07 92 04 d0 ca 64 da 12 7b aa f9
       0.24776576 0.0 0.32812223 -0.27120307 0.030133674 0.0234373 -0.36830044 0.013392744 -0.16071293 -0.18080203 0.3348186 -0.12723106 0.060267348 0.41182688 -0.287944 -0.0234373
000060 98 07 dd ef 5c d2 3e 1c 15 4c 0a c0 9f 52 c2 77
       -0.34821135 0.0234373 -0.11718651 -0.05691916 0.3080331 -0.15401655 0.20758753 0.0937492 0.070311904 0.25446212 0.03348186 -0.2142839 -0.32477403 0.27455124 -0.20758753 0.39843413
000070 8b b3 54 f5 67 47 39 9f fa 81 97 a6 69 dc 02 5e
       -0.39173776 -0.25781032 0.28124762 -0.036830045 0.34486315 0.2377212 0.19084659 -0.32477403 -0.020089116 -0.42521963 -0.35155952 -0.30133674 0.35155952 -0.120534696 0.006696372 0.31472948
000080 63 ea b7 f4 0b 0e 77 1b ce 03 cd 8e 57 93 52 6c
       0.3314704 -0.07366009 -0.24441758 -0.040178232 0.036830045 0.0468746 0.39843413 0.090401016 -0.1674093 0.010044558 -0.17075749 -0.38169318 0.29129216 -0.36495227 0.27455124 0.36160406
000090 67 df 74 5a 46 ac 57 46 8b 46 30 a1 b2 12 90 15
       0.34486315 -0.110490136 0.38838956 0.30133674 0.23437302 -0.28124762 0.29129216 0.23437302 -0.39173776 0.23437302 0.16071293 -0.31807765 -0.2611585 0.060267348 -0.3749968 0.070311904
0000a0 54 bc c2 e3 c0 1d fd f0 b6 e6 23 8c 2d e1 2d d1
       0.28124762 -0.22767664 -0.20758753 -0.09709739 -0.2142839 0.09709739 -0.010044558 -0.053570975 -0.24776576 -0.08705284 0.11718651 -0.38838956 0.15066837 -0.10379376 0.15066837 -0.15736474
0000b0 ee a0 a2 7b b5 53 61 9b ed a1 cd 4d cb 41 f3 f7
       -0.060267348 -0.32142586 -0.31472948 0.41182688 -0.25111395 0.27789944 0.32477403 -0.33816677 -0.06361553 -0.31807765 -0.17075749 0.25781032 -0.17745386 0.21763209 -0.04352642 -0.030133674
0000c0 b7 4a dc 47 1f 03 73 dd a9 95 f3 69 52 04 c6 b1
       -0.24441758 0.24776576 -0.120534696 0.2377212 0.10379376 0.010044558 0.3850414 -0.11718651 -0.29129216 -0.3582559 -0.04352642 0.35155952 0.27455124 0.013392744 -0.19419478 -0.2645067
0000d0 9f 6f 09 03 28 b6 56 f4 2b 70 08 f1 86 bb d7 54
       -0.32477403 0.37164864 0.030133674 0.010044558 0.13392743 -0.24776576 0.287944 -0.040178232 0.143972 0.3749968 0.026785487 -0.050222788 -0.40847868 -0.23102483 -0.13727562 0.28124762
0000e0 cd e8 74 66 35 6a fe 54 5c 32 f4 64 8c 16 fb 5c
       -0.17075749 -0.080356464 0.38838956 0.34151497 0.17745386 0.35490772 -0.006696372 0.28124762 0.3080331 0.1674093 -0.040178232 0.3348186 -0.38838956 0.07366009 -0.01674093 0.3080331
0000f0 44 19 88 aa 11 fc 81 2a a1 b7 40 70 f4 67 5e 98
       0.22767664 0.08370465 -0.4017823 -0.287944 0.05691916 -0.013392744 -0.42521963 0.14062381 -0.31807765 -0.24441758 0.2142839 0.3749968 -0.040178232 0.34486315 0.31472948 -0.34821135
