03_LD2410_TFL_CNN/Python/model_CNN.tflite (tflite, 14256 bytes, 4 tensors)

sequential_1/dense_3/MatMul i1 [5, 16] scale=0.0041138004 zero_point=0
00000000: 0b20 5c25 e0b7 5e36 52bc c09a 59b3 5296
00000010: bb9c eaae 852a 8923 0996 4c02 dc61 f13c
00000020: 2b8f 15d8 9c06 2cfc 2a3f 7b40 7f19 8210
00000030: 89f9 9ac6 5b76 b716 ef66 8f69 2b05 328e
00000040: 5c39 8870 7359 8745 c099 b2cf 4816 46b5
0.045251805 0.13164161 0.37846965 0.15221061 -0.13164161 -0.30030742 0.38669723 0.22214521
0.33733162 -0.27973843 -0.26328322 -0.41960764 0.36612824 -0.31676263 0.33733162 -0.43606284
-0.28385222 -0.41138002 -0.09050361 -0.33733162 -0.5059974 0.17277962 -0.48954225 0.143983
0.037024204 -0.43606284 0.31264883 0.008227601 -0.14809681 0.39903864 -0.061707005 0.24682802
0.17689341 -0.46485943 0.08638981 -0.16455202 -0.41138002 0.024682801 0.18100722 -0.016455201
0.17277962 0.25916943 0.5059974 0.26328322 0.52245265 0.102845006 -0.51833886 0.065820806
-0.48954225 -0.028796602 -0.41960764 -0.23860042 0.37435582 0.48542845 -0.30030742 0.09050361
-0.06993461 0.41960764 -0.46485943 0.43194905 0.17689341 0.020569002 0.20569001 -0.46897325
0.37846965 0.23448662 -0.49365604 0.46074563 0.47308704 0.36612824 -0.49776983 0.28385222
-0.26328322 -0.42372143 -0.32087642 -0.20157622 0.29619363 0.09050361 0.287966 -0.30853504

sequential_1/dense_2/MatMul i1 [16, 240] scale=0.0021120303 zero_point=0
00000000: 45fe 38c4 1816 e42e f2f4 d611 2cc6 f409
00000010: 37dd c8b5 c33b 43bf ed09 3041 c90b 4306
00000020: 14df 1000 ebe5 c8bd cfbf e4ca db2b b839
00000030: ea32 41b6 f307 4216 d3ce 3e16 e4e7 4039
00000040: efdf 070a 3bdd 02f2 b8ce bd32 f4d3 c9bd
00000050: 31e7 eb38 cf01 32ee 46fa 35db c5da c121
00000060: 4042 0718 c0cf 31bb fac4 3642 c62c d347
00000070: ec29 2a3c f9e0 f5cc 113c c439 f8fd bd1a
00000080: d5d3 e343 dbda 38e9 0c1c 4518 fd43 0d12
00000090: 054d 0bbf 0513 3419 c340 f2e5 d4ed def4
000000a0: c6bc 0821 c82e da06 32d3 0835 3101 28b8
000000b0: b8c1 0bbf f0b9 3ae1 bfcd ba11 bfc6 c62d
000000c0: dd10 1218 371d 07c8 eed7 cfd5 ffef e9da
000000d0: c6c0 18bc e5e1 c232 beed 1ae0 2234 10f6
000000e0: 27b8 07fa 34d5 08f8 d530 2ce9 ff2e 28f2
000000f0: e60e 2505 e4c5 0cee f9e6 1634 39d5 17b7
0.1457301 -0.0042240606 0.1182737 -0.12672181 0.05068873 0.046464667 -0.05913685 0.097153395
-0.029568424 -0.025344364 -0.08870527 0.035904516 0.09292933 -0.12249776 -0.025344364 0.019008273
0.11616167 -0.07392106 -0.1182737 -0.15840226 -0.12883385 0.12460978 0.14150603 -0.13728197
-0.040128574 0.019008273 0.10137746 0.13728197 -0.11616167 0.023232333 0.14150603 0.012672182
0.042240605 -0.069697 0.033792485 0.0 -0.044352636 -0.057024818 -0.1182737 -0.14150603
-0.10348948 -0.13728197 -0.05913685 -0.114049636 -0.078145124 0.0908173 -0.15206619 0.12038573
-0.046464667 0.10560151 0.13728197 -0.15629025 -0.027456393 0.014784212 0.139394 0.046464667
-0.095041364 -0.10560151 0.13094588 0.046464667 -0.05913685 -0.052800756 0.13516994 0.12038573
-0.035904516 -0.069697 0.014784212 0.021120302 0.12460978 -0.07392106 0.0042240606 -0.029568424
-0.15206619 -0.10560151 -0.14150603 0.10560151 -0.025344364 -0.095041364 -0.11616167 -0.14150603
0.10348948 -0.052800756 -0.044352636 0.1182737 -0.10348948 0.0021120303 0.10560151 -0.038016547
0.14784212 -0.012672182 0.111937605 -0.078145124 -0.12460978 -0.08025715 -0.1330579 0.069697
0.13516994 0.139394 0.014784212 0.05068873 -0.13516994 -0.10348948 0.10348948 -0.1457301
-0.012672182 -0.12672181 0.114049636 0.139394 -0.12249776 0.09292933 -0.095041364 0.14995416
-0.042240605 0.08659324 0.08870527 0.12672181 -0.014784212 -0.06758497 -0.023232333 -0.109825574
0.035904516 0.12672181 -0.12672181 0.12038573 -0.016896242 -0.006336091 -0.14150603 0.054912787
-0.0908173 -0.095041364 -0.06124888 0.14150603 -0.078145124 -0.08025715 0.1182737 -0.048576698
0.025344364 0.05913685 0.1457301 0.05068873 -0.006336091 0.14150603 0.027456393 0.038016547
0.010560151 0.16262633 0.023232333 -0.13728197 0.010560151 0.040128574 0.109825574 0.052800756
-0.12883385 0.13516994 -0.029568424 -0.057024818 -0.09292933 -0.040128574 -0.07180903 -0.025344364
-0.12249776 -0.14361806 0.016896242 0.069697 -0.1182737 0.097153395 -0.08025715 0.012672182
0.10560151 -0.095041364 0.016896242 0.111937605 0.10348948 0.0021120303 0.08448121 -0.15206619
-0.15206619 -0.1330579 0.023232333 -0.13728197 -0.033792485 -0.14995416 0.12249776 -0.06547294
-0.13728197 -0.10771354 -0.14784212 0.035904516 -0.13728197 -0.12249776 -0.12249776 0.095041364
-0.07392106 0.033792485 0.038016547 0.05068873 0.11616167 0.06124888 0.014784212 -0.1182737
-0.038016547 -0.08659324 -0.10348948 -0.0908173 -0.0021120303 -0.035904516 -0.048576698 -0.08025715
-0.12249776 -0.13516994 0.05068873 -0.14361806 -0.057024818 -0.06547294 -0.13094588 0.10560151
-0.139394 -0.040128574 0.054912787 -0.06758497 0.07180903 0.109825574 0.033792485 -0.021120302
0.08236918 -0.15206619 0.014784212 -0.012672182 0.109825574 -0.0908173 0.016896242 -0.016896242
-0.0908173 0.10137746 0.09292933 -0.048576698 -0.0021120303 0.097153395 0.08448121 -0.029568424
-0.054912787 0.029568424 0.078145124 0.010560151 -0.05913685 -0.12460978 0.025344364 -0.038016547
-0.014784212 -0.054912787 0.046464667 0.109825574 0.12038573 -0.0908173 0.048576698 -0.15417822

sequential_1/conv2d_3/Conv2D i1 [16, 3, 3, 32]
00000000: 9a57 d6db dd2d b543 e3a4 d1a0 e513 03c2
00000010: e1e7 e1dc d620 c525 c441 b4e4 23e2 f6dd
00000020: c829 bf16 e621 c70f 4ce1 02e7 c401 ad40
00000030: 2ed8 e11f 2826 cc39 1435 1c01 3e10 f8c2
00000040: c5d6 21e5 46dc e4f3 fbe1 1a1c f033 14ac
00000050: 1d12 ecee c902 bbc0 d212 c4cc 51cf 2808
00000060: 91d0 ab4d b44c 2137 21c1 c0d4 c227 26d3
00000070: e0fb de23 03f9 c1ce 3cf9 f7d4 be3d d8cd
00000080: c3fd 284b c8e0 d72e 2c43 fd44 1cd7 fde6
00000090: 0c2d 09ee eb26 0741 e0e1 1640 dce5 2a35
000000a0: acbf 2618 22ed d8db 1ae6 fdba 0fca 01ac
000000b0: dd4c e515 34ea 260f 16f7 4ac5 2ae4 1c04
000000c0: b7e7 1e17 00f1 11bf c1cf e9b8 33b9 d45d
000000d0: 1a2a f944 d6dd de21 052e 7fec fe22 cfc5
000000e0: 9020 2b46 d9d0 cc39 26e0 07d4 accd cc26
000000f0: d741 d63f e63a 0ec1 38d2 d436 3d29 1ce5
-102 87 -42 -37 -35 45 -75 67
-29 -92 -47 -96 -27 19 3 -62
-31 -25 -31 -36 -42 32 -59 37
-60 65 -76 -28 35 -30 -10 -35
-56 41 -65 22 -26 33 -57 15
76 -31 2 -25 -60 1 -83 64
46 -40 -31 31 40 38 -52 57
20 53 28 1 62 16 -8 -62
-59 -42 33 -27 70 -36 -28 -13
-5 -31 26 28 -16 51 20 -84
29 18 -20 -18 -55 2 -69 -64
-46 18 -60 -52 81 -49 40 8
-111 -48 -85 77 -76 76 33 55
33 -63 -64 -44 -62 39 38 -45
-32 -5 -34 35 3 -7 -63 -50
60 -7 -9 -44 -66 61 -40 -51
-61 -3 40 75 -56 -32 -41 46
44 67 -3 68 28 -41 -3 -26
12 45 9 -18 -21 38 7 65
-32 -31 22 64 -36 -27 42 53
-84 -65 38 24 34 -19 -40 -37
26 -26 -3 -70 15 -54 1 -84
-35 76 -27 21 52 -22 38 15
22 -9 74 -59 42 -28 28 4
-73 -25 30 23 0 -15 17 -65
-63 -49 -23 -72 51 -71 -44 93
26 42 -7 68 -42 -35 -34 33
5 46 127 -20 -2 34 -49 -59
-112 32 43 70 -39 -48 -52 57
38 -32 7 -44 -84 -51 -52 38
-41 65 -42 63 -26 58 14 -63
56 -46 -44 54 61 41 28 -27

sequential_1/conv2d_2/Conv2D i1 [32, 3, 3, 1]
00000000: 68c5 a4fd 81e6 2acd ea8b bb24 ae4a 81ef
00000010: 72f5 0fb3 81d0 d04d 7768 f3cd 6947 d781
00000020: 57a5 5420 3c8b e07f c910 2412 9085 e56b
00000030: e103 4f2f 814b 2a9c cb70 7fad de11 3b7f
00000040: 1a63 0f47 e01e 9ed7 ca51 7ea6 7e36 7d7f
00000050: d2dc 9826 e3bc 6ff7 9b81 d98a 8142 097f
00000060: dbbc e8e4 51dd 63ab c9e1 81e8 b7dc 8d7f
00000070: e220 8c0a 9663 8183 1d00 f02a 0a59 3af5
00000080: 7fd2 7cae 8cae ae00 606b d18c 961e 1e81
00000090: be1e 7fbe 63a8 3e54 0a17 4981 c57b a9a6
000000a0: c520 3104 c046 fe81 f6f1 449d a87f f0ec
000000b0: 61f7 d5d0 5652 d99b 8f7f b80c da7f 5a13
000000c0: 3fae 6096 5376 1ab6 699b 0881 d308 482a
000000d0: e4d2 aa28 7f24 2a5e 9661 d5c5 4f46 bf85
000000e0: 8179 f07f 5c20 0e90 e669 7afd af99 dfdf
000000f0: 81f8 0dcc 3e5b 5d7f a7eb 34d7 fe3b e5a8
104 -59 -92 -3 -127 -26 42 -51
-22 -117 -69 36 -82 74 -127 -17
114 -11 15 -77 -127 -48 -48 77
119 104 -13 -51 105 71 -41 -127
87 -91 84 32 60 -117 -32 127
-55 16 36 18 -112 -123 -27 107
-31 3 79 47 -127 75 42 -100
-53 112 127 -83 -34 17 59 127
26 99 15 71 -32 30 -98 -41
-54 81 126 -90 126 54 125 127
-46 -36 -104 38 -29 -68 111 -9
-101 -127 -39 -118 -127 66 9 127
-37 -68 -24 -28 81 -35 99 -85
-55 -31 -127 -24 -73 -36 -115 127
-30 32 -116 10 -106 99 -127 -125
29 0 -16 42 10 89 58 -11
127 -46 124 -82 -116 -82 -82 0
96 107 -47 -116 -106 30 30 -127
-66 30 127 -66 99 -88 62 84
10 23 73 -127 -59 123 -87 -90
-59 32 49 4 -64 70 -2 -127
-10 -15 68 -99 -88 127 -16 -20
97 -9 -43 -48 86 82 -39 -101
-113 127 -72 12 -38 127 90 19
63 -82 96 -106 83 118 26 -74
105 -101 8 -127 -45 8 72 42
-28 -46 -86 40 127 36 42 94
-106 97 -43 -59 79 70 -65 -123
-127 121 -16 127 92 32 14 -112
-26 105 122 -3 -81 -103 -33 -33
-127 -8 13 -52 62 91 93 127
-89 -21 52 -41 -2 59 -27 -88
