02_LD2410_TFL_Linear/Python/model_linear.tflite (tflite, 10712 bytes, 4 tensors)

sequential/dense_3/MatMul i1 [5, 16] scale=0.004141862 zero_point=0
0	0xf8	-0.033134896
1	0xcc	-0.21537682
2	0x58	0.36448386
3	0x18	0.09940469
4	0xe9	-0.095262825
5	0xf3	-0.053844206
6	0xa5	-0.37690943
7	0xa2	-0.38933504
8	0x1f	0.12839772
9	0x73	0.47631413
10	0x47	0.2940722
11	0x3b	0.24436986
12	0xcf	-0.20295124
13	0xe9	-0.095262825
14	0x7a	0.5053072
15	0x06	0.024851173
16	0x19	0.10354655
17	0x18	0.09940469
18	0xd9	-0.16153263
19	0x5b	0.37690943
20	0x85	-0.509449
21	0x0d	0.053844206
22	0x52	0.3396327
23	0xbf	-0.26922104
24	0x7e	0.5218746
25	0xe4	-0.11597214
26	0x47	0.2940722
27	0xb8	-0.29821408
28	0x5f	0.3934769
29	0xdb	-0.15324889
30	0x75	0.48459786
31	0x23	0.14496517
32	0xee	-0.07455352
33	0xe3	-0.120114
34	0xcb	-0.21951869
35	0xa1	-0.3934769
36	0x98	-0.43075365
37	0x50	0.33134896
38	0xfb	-0.02070931
39	0x62	0.40590248
40	0x22	0.1408233
41	0x3e	0.25679544
42	0x7c	0.5135909
43	0x44	0.2816466
44	0x57	0.360342
45	0xcd	-0.21123496
46	0x30	0.19880939
47	0x39	0.23608613
48	0x7b	0.509449
49	0x30	0.19880939
50	0x99	-0.42661178
51	0x17	0.095262825
52	0x8a	-0.48873973
53	0x3b	0.24436986
54	0xde	-0.1408233
55	0xe1	-0.12839772
56	0x71	0.46803042
57	0x8f	-0.46803042
58	0x6b	0.44317925
59	0x26	0.15739076
60	0x53	0.34377456
61	0xdd	-0.14496517
62	0xee	-0.07455352
63	0xea	-0.091120966
64	0xc1	-0.2609373
65	0xd9	-0.16153263
66	0xb4	-0.31478152
67	0x3a	0.240228
68	0x43	0.27750474
69	0x7f	0.5260165
70	0x06	0.024851173
71	0x31	0.20295124
72	0x5a	0.3727676
73	0xff	-0.004141862
74	0x50	0.33134896
75	0x85	-0.509449
76	0x24	0.14910704
77	0x33	0.21123496
78	0xd0	-0.19880939
79	0x70	0.46388856

sequential/dense_2/MatMul i1 [16, 32] scale=0.0034337807 zero_point=0
0	0xc7	-0.1957255
1	0x61	0.33307675
2	0x2b	0.14765257
3	0x5a	0.30904028
4	0x66	0.35024562
5	0x46	0.24036466
6	0x16	0.07554318
7	0x0c	0.04120537
8	0x0e	0.04807293
9	0xcb	-0.18199039
10	0xae	-0.28157002
11	0x27	0.13391745
12	0x15	0.072109394
13	0x9e	-0.3365105
14	0x12	0.061808053
15	0x00	0.0
16	0xb8	-0.24723221
17	0xa6	-0.30904028
18	0xf0	-0.054940492
19	0x27	0.13391745
20	0xa7	-0.30560648
21	0x5b	0.31247404
22	0x54	0.28843758
23	0xc3	-0.20946063
24	0x59	0.30560648
25	0x10	0.054940492
26	0xf0	-0.054940492
27	0x08	0.027470246
28	0x97	-0.36054698
29	0xdd	-0.12018233
30	0x3a	0.19915928
31	0xbe	-0.22662953
32	0xe6	-0.089278296
33	0x43	0.2300633
34	0x13	0.065241836
35	0x9b	-0.34681186
36	0x98	-0.35711318
37	0x32	0.17168903
38	0x61	0.33307675
39	0x16	0.07554318
40	0x55	0.29187137
41	0xd9	-0.13391745
42	0xf8	-0.027470246
43	0x04	0.013735123
44	0x4e	0.2678349
45	0xe8	-0.08241074
46	0xc7	-0.1957255
47	0x38	0.19229172
48	0xe6	-0.089278296
49	0xfb	-0.017168904
50	0xb6	-0.2540998
51	0xe7	-0.08584452
52	0xcf	-0.16825525
53	0x2f	0.1613877
54	0xbb	-0.23693088
55	0x5b	0.31247404
56	0x65	0.34681186
57	0x62	0.3365105
58	0x4d	0.2644011
59	0x2c	0.15108636
60	0x33	0.17512281
61	0x17	0.07897696
62	0x2b	0.14765257
63	0xa1	-0.32620916
64	0x09	0.030904027
65	0x1b	0.09271208
66	0x40	0.21976197
67	0xd5	-0.14765257
68	0xd8	-0.13735123
69	0xf3	-0.044639148
70	0xee	-0.061808053
71	0xdf	-0.11331476
72	0x37	0.18885794
73	0xe6	-0.089278296
74	0xb8	-0.24723221
75	0x4d	0.2644011
76	0x89	-0.4086199
77	0x48	0.24723221
78	0xd2	-0.15795392
79	0x98	-0.35711318
80	0x5a	0.30904028
81	0xe3	-0.09957964
82	0xb2	-0.2678349
83	0x62	0.3365105
84	0x69	0.36054698
85	0xd3	-0.15452014
86	0x34	0.17855659
87	0xcb	-0.18199039
88	0xd7	-0.14078501
89	0x58	0.30217272
90	0xf4	-0.04120537
91	0x24	0.12361611
92	0x35	0.18199039
93	0xb0	-0.27470246
94	0x4b	0.25753355
95	0xd1	-0.1613877
96	0x07	0.024036465
97	0x13	0.065241836
98	0x15	0.072109394
99	0xef	-0.05837427
100	0xcd	-0.17512281
101	0x4c	0.26096734
102	0xb7	-0.250666
103	0x7f	0.43609014
104	0x03	0.010301342
105	0x48	0.24723221
106	0x08	0.027470246
107	0xfa	-0.020602684
108	0x39	0.1957255
109	0xe0	-0.109880984
110	0xd0	-0.16482148
111	0x41	0.22319575
112	0xcb	-0.18199039
113	0xf2	-0.04807293
114	0x00	0.0
115	0xd6	-0.14421879
116	0xd2	-0.15795392
117	0xc9	-0.18885794
118	0xb3	-0.2644011
119	0x1b	0.09271208
120	0x0b	0.03777159
121	0x07	0.024036465
122	0x67	0.35367942
123	0xba	-0.24036466
124	0xfc	-0.013735123
125	0xe7	-0.08584452
126	0xf6	-0.034337807
127	0xe2	-0.103013426
128	0x16	0.07554318
129	0xec	-0.068675615
130	0x13	0.065241836
131	0x9c	-0.34337807
132	0xef	-0.05837427
133	0x03	0.010301342
134	0xc2	-0.21289441
135	0xd5	-0.14765257
136	0x23	0.12018233
137	0xd7	-0.14078501
138	0xe5	-0.09271208
139	0xdd	-0.12018233
140	0x64	0.34337807
141	0xae	-0.28157002
142	0x9d	-0.3399443
143	0xe6	-0.089278296
144	0x44	0.23349708
145	0x9f	-0.33307675
146	0xa0	-0.32964295
147	0x69	0.36054698
148	0x3f	0.21632819
149	0x28	0.13735123
150	0x33	0.17512281
151	0xe9	-0.07897696
152	0x51	0.27813625
153	0x23	0.12018233
154	0xf3	-0.044639148
155	0x34	0.17855659
156	0x32	0.17168903
157	0x1d	0.09957964
158	0xe9	-0.07897696
159	0x38	0.19229172
160	0xdd	-0.12018233
161	0xc2	-0.21289441
162	0xae	-0.28157002
163	0x5a	0.30904028
164	0x4d	0.2644011
165	0x9e	-0.3365105
166	0x5b	0.31247404
167	0xc0	-0.21976197
168	0xec	-0.068675615
169	0x3d	0.20946063
170	0x31	0.16825525
171	0xc1	-0.21632819
172	0x04	0.013735123
173	0x62	0.3365105
174	0x9b	-0.34681186
175	0xe7	-0.08584452
176	0x3e	0.21289441
177	0xc3	-0.20946063
178	0x13	0.065241836
179	0x15	0.072109394
180	0x62	0.3365105
181	0x3c	0.20602685
182	0x1f	0.106447205
183	0xb8	-0.24723221
184	0x41	0.22319575
185	0x67	0.35367942
186	0xf5	-0.03777159
187	0x59	0.30560648
188	0x51	0.27813625
189	0xca	-0.18542416
190	0x26	0.13048367
191	0xef	-0.05837427
192	0x5a	0.30904028
193	0x16	0.07554318
194	0x59	0.30560648
195	0xe8	-0.08241074
196	0xfa	-0.020602684
197	0x9d	-0.3399443
198	0xfd	-0.010301342
199	0x5e	0.3227754
200	0x26	0.13048367
201	0xfe	-0.0068675615
202	0xcf	-0.16825525
203	0xc8	-0.19229172
204	0x63	0.3399443
205	0xea	-0.07554318
206	0xdf	-0.11331476
207	0xff	-0.0034337807
208	0xac	-0.28843758
209	0x08	0.027470246
210	0xa2	-0.3227754
211	0xd5	-0.14765257
212	0xdb	-0.1270499
213	0x4a	0.2540998
214	0x35	0.18199039
215	0xb4	-0.26096734
216	0x67	0.35367942
217	0xc5	-0.20259306
218	0x9b	-0.34681186
219	0xbb	-0.23693088
220	0xb8	-0.24723221
221	0xb4	-0.26096734
222	0x0a	0.034337807
223	0xfc	-0.013735123
224	0xe3	-0.09957964
225	0x36	0.18542416
226	0xc0	-0.21976197
227	0x38	0.19229172
228	0x62	0.3365105
229	0x21	0.11331476
230	0xa4	-0.31590784
231	0x45	0.23693088
232	0xe4	-0.09614586
233	0xb5	-0.25753355
234	0xc3	-0.20946063
235	0xcc	-0.17855659
236	0x30	0.16482148
237	0x54	0.28843758
238	0xf3	-0.044639148
239	0x2c	0.15108636
240	0x5a	0.30904028
241	0xf6	-0.034337807
242	0xe5	-0.09271208
243	0x2d	0.15452014
244	0xf2	-0.04807293
245	0x08	0.027470246
246	0xdb	-0.1270499
247	0x47	0.24379843
248	0xa2	-0.3227754
249	0xa9	-0.29873893
250	0xeb	-0.072109394
251	0x5a	0.30904028
252	0xc8	-0.19229172
253	0x4e	0.2678349
254	0xad	-0.2850038
255	0xe5	-0.09271208

sequential/dense_1/MatMul i1 [32, 32] scale=0.0027515586 zero_point=0
0	0x2c	0.121068574
1	0xd1	-0.12932326
2	0x12	0.049528055
3	0x49	0.20086378
4	0xf5	-0.030267144
5	0x1b	0.07429208
6	0x2a	0.11556546
7	0x9a	-0.28065896
8	0x07	0.01926091
9	0xbf	-0.1788513
10	0xe3	-0.0797952
11	0x34	0.14308104
12	0x38	0.15408728
13	0x28	0.110062346
14	0xf3	-0.03577026
15	0xb0	-0.22012469
16	0xad	-0.22837935
17	0x2a	0.11556546
18	0x1b	0.07429208
19	0xd6	-0.11556546
20	0x04	0.011006234
21	0x22	0.09355299
22	0x9f	-0.26690117
23	0x36	0.14858416
24	0xd2	-0.1265717
25	0x39	0.15683883
26	0xf9	-0.01926091
27	0x66	0.28065896
28	0x0a	0.027515586
29	0xb1	-0.21737313
30	0xe7	-0.06878896
31	0xa6	-0.24764027
32	0x5a	0.24764027
33	0xa6	-0.24764027
34	0x0e	0.03852182
35	0x6d	0.29991987
36	0x11	0.046776496
37	0x5d	0.25589496
38	0x0a	0.027515586
39	0x48	0.19811222
40	0x6c	0.2971683
41	0xf6	-0.027515586
42	0xfb	-0.013757793
43	0xb1	-0.21737313
44	0x18	0.0660374
45	0xae	-0.2256278
46	0x51	0.22287624
47	0xfd	-0.008254675
48	0xbb	-0.18985754
49	0x57	0.23938559
50	0x93	-0.29991987
51	0x91	-0.305423
52	0x49	0.20086378
53	0x4f	0.21737313
54	0xdb	-0.10180767
55	0xfa	-0.01650935
56	0xf5	-0.030267144
57	0xab	-0.23388247
58	0x9a	-0.28065896
59	0x4e	0.21462157
60	0x04	0.011006234
61	0x11	0.046776496
62	0x2a	0.11556546
63	0xf4	-0.0330187
64	0x12	0.049528055
65	0x20	0.08804987
66	0x31	0.13482636
67	0xf9	-0.01926091
68	0x9a	-0.28065896
69	0x69	0.28891364
70	0x26	0.10455923
71	0xf0	-0.044024937
72	0x02	0.005503117
73	0xd2	-0.1265717
74	0xb1	-0.21737313
75	0xf2	-0.03852182
76	0x6a	0.2916652
77	0xb1	-0.21737313
78	0xf1	-0.041273378
79	0x1e	0.082546756
80	0xb7	-0.20086378
81	0xd8	-0.110062346
82	0xea	-0.060534287
83	0x01	0.0027515586
84	0xe0	-0.08804987
85	0xf6	-0.027515586
86	0x5d	0.25589496
87	0x99	-0.28341052
88	0x1e	0.082546756
89	0x30	0.1320748
90	0x9a	-0.28065896
91	0x6a	0.2916652
92	0x0e	0.03852182
93	0xed	-0.052279614
94	0x6d	0.29991987
95	0xff	-0.0027515586
96	0xf6	-0.027515586
97	0xdd	-0.09630455
98	0x38	0.15408728
99	0xb5	-0.2063669
100	0xc4	-0.16509351
101	0xeb	-0.05778273
102	0x56	0.23663403
103	0x9d	-0.27240428
104	0xc3	-0.16784507
105	0xe3	-0.0797952
106	0x27	0.10731079
107	0xaf	-0.22287624
108	0x50	0.22012469
109	0x05	0.013757793
110	0x35	0.1458326
111	0xa1	-0.26139808
112	0xc6	-0.1595904
113	0xcb	-0.1458326
114	0x31	0.13482636
115	0x17	0.06328585
116	0xbd	-0.18435442
117	0x72	0.31367767
118	0x13	0.052279614
119	0xa2	-0.25864652
120	0x91	-0.305423
121	0x3f	0.17334819
122	0xc7	-0.15683883
123	0x26	0.10455923
124	0x54	0.23113091
125	0x6d	0.29991987
126	0xb2	-0.21462157
127	0x2d	0.12382013
128	0x00	0.0
129	0xee	-0.049528055
130	0x6e	0.30267143
131	0xd3	-0.12382013
132	0x3b	0.16234195
133	0xc4	-0.16509351
134	0xf8	-0.022012468
135	0x11	0.046776496
136	0xc0	-0.17609975
137	0x37	0.15133572
138	0x37	0.15133572
139	0x01	0.0027515586
140	0xea	-0.060534287
141	0xe1	-0.085298315
142	0x70	0.30817455
143	0x04	0.011006234
144	0xde	-0.09355299
145	0x0b	0.030267144
146	0x6e	0.30267143
147	0x06	0.01650935
148	0xff	-0.0027515586
149	0xd5	-0.118317015
150	0xa1	-0.26139808
151	0xb3	-0.21187001
152	0x1d	0.0797952
153	0x43	0.18435442
154	0x56	0.23663403
155	0xb8	-0.19811222
156	0x51	0.22287624
157	0xbb	-0.18985754
158	0x6e	0.30267143
159	0xe7	-0.06878896
160	0xf8	-0.022012468
161	0x2b	0.118317015
162	0xd5	-0.118317015
163	0x19	0.06878896
164	0xbb	-0.18985754
165	0xeb	-0.05778273
166	0xdd	-0.09630455
167	0xe7	-0.06878896
168	0x9b	-0.2779074
169	0xac	-0.23113091
170	0x2d	0.12382013
171	0x30	0.1320748
172	0x2a	0.11556546
173	0xfd	-0.008254675
174	0xc9	-0.15133572
175	0x2e	0.1265717
176	0xd9	-0.10731079
177	0x63	0.27240428
178	0xab	-0.23388247
179	0x6c	0.2971683
180	0x6b	0.29441676
181	0x37	0.15133572
182	0xf9	-0.01926091
183	0x01	0.0027515586
184	0x1a	0.07154052
185	0xcc	-0.14308104
186	0x5c	0.2531434
187	0xc0	-0.17609975
188	0x2c	0.121068574
189	0xec	-0.055031173
190	0x0e	0.03852182
191	0x54	0.23113091
192	0x11	0.046776496
193	0xf4	-0.0330187
194	0xd1	-0.12932326
195	0x05	0.013757793
196	0xc4	-0.16509351
197	0xae	-0.2256278
198	0x01	0.0027515586
199	0x9b	-0.2779074
200	0xeb	-0.05778273
201	0xe6	-0.07154052
202	0x1b	0.07429208
203	0x98	-0.28616208
204	0xb5	-0.2063669
205	0xe8	-0.0660374
206	0xe2	-0.082546756
207	0xb2	-0.21462157
208	0xfe	-0.005503117
209	0x49	0.20086378
210	0xd2	-0.1265717
211	0x57	0.23938559
212	0x54	0.23113091
213	0xdb	-0.10180767
214	0xd4	-0.121068574
215	0x37	0.15133572
216	0x2a	0.11556546
217	0x40	0.17609975
218	0xfa	-0.01650935
219	0x1e	0.082546756
220	0xee	-0.049528055
221	0x95	-0.29441676
222	0xe0	-0.08804987
223	0x9c	-0.27515584
224	0x9c	-0.27515584
225	0xf3	-0.03577026
226	0xac	-0.23113091
227	0xbb	-0.18985754
228	0x47	0.19536066
229	0x0d	0.03577026
230	0xfd	-0.008254675
231	0xec	-0.055031173
232	0x38	0.15408728
233	0xe7	-0.06878896
234	0x5f	0.26139808
235	0xff	-0.0027515586
236	0xfd	-0.008254675
237	0x2a	0.11556546
238	0xf8	-0.022012468
239	0x1c	0.07704364
240	0xdf	-0.09080143
241	0x3f	0.17334819
242	0xfe	-0.005503117
243	0x42	0.18160287
244	0x48	0.19811222
245	0xb3	-0.21187001
246	0xd8	-0.110062346
247	0xb7	-0.20086378
248	0xed	-0.052279614
249	0xc3	-0.16784507
250	0x56	0.23663403
251	0x33	0.14032948
252	0x09	0.024764027
253	0xac	-0.23113091
254	0xbd	-0.18435442
255	0xa0	-0.2641496

sequential/dense/MatMul i1 [32, 180] scale=0.0020273626 zero_point=0
0	0xe8	-0.048656702
1	0xdf	-0.066902965
2	0x3e	0.12569648
3	0x13	0.03851989
4	0xf5	-0.022300988
5	0x1c	0.056766152
6	0x32	0.10136813
7	0xb3	-0.15610692
8	0xed	-0.03851989
9	0xb2	-0.15813428
10	0xaf	-0.16421637
11	0x14	0.04054725
12	0xdb	-0.075012416
13	0xba	-0.14191538
14	0xd6	-0.08514923
15	0xd1	-0.09528604
16	0xe2	-0.060820878
17	0xc6	-0.11758703
18	0xef	-0.034465164
19	0xce	-0.10136813
20	0xb9	-0.14394274
21	0xfc	-0.00810945
22	0xcf	-0.09934077
23	0x45	0.13988802
24	0x0f	0.030410439
25	0x4c	0.15407956
26	0xd7	-0.083121866
27	0xf4	-0.024328351
28	0x0f	0.030410439
29	0xfe	-0.004054725
30	0x4f	0.16016164
31	0x17	0.04662934
32	0xb3	-0.15610692
33	0x4f	0.16016164
34	0x3c	0.121641755
35	0x04	0.00810945
36	0xba	-0.14191538
37	0xf4	-0.024328351
38	0x22	0.06893033
39	0xfd	-0.0060820878
40	0xd4	-0.089203954
41	0xd2	-0.09325868
42	0x10	0.0324378
43	0xe4	-0.056766152
44	0x32	0.10136813
45	0x52	0.16624373
46	0xf4	-0.024328351
47	0x3c	0.121641755
48	0x01	0.0020273626
49	0xdf	-0.066902965
50	0xe0	-0.0648756
51	0xdc	-0.07298505
52	0x33	0.10339549
53	0x50	0.162189
54	0xca	-0.10947758
55	0x4f	0.16016164
56	0xcc	-0.105422854
57	0x24	0.07298505
58	0xdb	-0.075012416
59	0x21	0.066902965
60	0x37	0.11150494
61	0x26	0.07703978
62	0x2c	0.089203954
63	0x4f	0.16016164
64	0xda	-0.07703978
65	0x37	0.11150494
66	0xae	-0.16624373
67	0xc8	-0.113532305
68	0x21	0.066902965
69	0xe9	-0.04662934
70	0xb6	-0.15002483
71	0xf7	-0.018246263
72	0x3a	0.11758703
73	0xcf	-0.09934077
74	0xda	-0.07703978
75	0x31	0.09934077
76	0xb3	-0.15610692
77	0x28	0.0810945
78	0xd3	-0.09123132
79	0xbd	-0.1358333
80	0x4b	0.1520522
81	0x2e	0.09325868
82	0xe2	-0.060820878
83	0xd3	-0.09123132
84	0x34	0.105422854
85	0xf4	-0.024328351
86	0xcb	-0.10745022
87	0x07	0.014191538
88	0xc1	-0.12772384
89	0xda	-0.07703978
90	0x37	0.11150494
91	0x36	0.10947758
92	0x22	0.06893033
93	0x30	0.097313404
94	0x01	0.0020273626
95	0x3b	0.11961439
96	0xe8	-0.048656702
97	0x1a	0.052711427
98	0xe1	-0.06284824
99	0x41	0.13177857
100	0x10	0.0324378
101	0x1f	0.06284824
102	0x39	0.11555967
103	0xd9	-0.07906714
104	0x1a	0.052711427
105	0xbe	-0.13380593
106	0x43	0.1358333
107	0x00	0.0
108	0x1b	0.05473879
109	0xc1	-0.12772384
110	0xdf	-0.066902965
111	0xd1	-0.09528604
112	0x06	0.0121641755
113	0x0d	0.026355714
114	0xd8	-0.0810945
115	0x2d	0.09123132
116	0xd6	-0.08514923
117	0xd4	-0.089203954
118	0xfd	-0.0060820878
119	0xb5	-0.1520522
120	0xf7	-0.018246263
121	0xe5	-0.05473879
122	0xe6	-0.052711427
123	0xe9	-0.04662934
124	0x04	0.00810945
125	0x35	0.10745022
126	0x11	0.034465164
127	0x1a	0.052711427
128	0x18	0.048656702
129	0xde	-0.06893033
130	0x4d	0.15610692
131	0xd5	-0.08717659
132	0xb8	-0.1459701
133	0xf7	-0.018246263
134	0x0b	0.022300988
135	0xef	-0.034465164
136	0xb2	-0.15813428
137	0xbd	-0.1358333
138	0xe3	-0.058793515
139	0x03	0.0060820878
140	0xd0	-0.097313404
141	0xdb	-0.075012416
142	0xae	-0.16624373
143	0x14	0.04054725
144	0x40	0.1297512
145	0x1e	0.060820878
146	0x22	0.06893033
147	0x2a	0.08514923
148	0xfb	-0.010136813
149	0xe8	-0.048656702
150	0x26	0.07703978
151	0xef	-0.034465164
152	0x44	0.13786066
153	0xd9	-0.07906714
154	0x24	0.07298505
155	0xe3	-0.058793515
156	0x31	0.09934077
157	0xcc	-0.105422854
158	0x27	0.07906714
159	0x50	0.162189
160	0xed	-0.03851989
161	0x17	0.04662934
162	0xf3	-0.026355714
163	0xc3	-0.12366912
164	0xdc	-0.07298505
165	0x33	0.10339549
166	0xb5	-0.1520522
167	0xcf	-0.09934077
168	0xd3	-0.09123132
169	0x3e	0.12569648
170	0xf5	-0.022300988
171	0x51	0.16421637
172	0x1a	0.052711427
173	0xb4	-0.15407956
174	0xb7	-0.14799747
175	0xfd	-0.0060820878
176	0x25	0.075012416
177	0x0b	0.022300988
178	0xb3	-0.15610692
179	0x04	0.00810945
180	0x4a	0.15002483
181	0xe8	-0.048656702
182	0x25	0.075012416
183	0xce	-0.10136813
184	0xf5	-0.022300988
185	0x29	0.083121866
186	0xcc	-0.105422854
187	0x47	0.14394274
188	0xd9	-0.07906714
189	0x33	0.10339549
190	0xff	-0.0020273626
191	0xe0	-0.0648756
192	0x25	0.075012416
193	0x41	0.13177857
194	0x2a	0.08514923
195	0xe7	-0.050684065
196	0xc2	-0.12569648
197	0x27	0.07906714
198	0x01	0.0020273626
199	0x25	0.075012416
200	0x3f	0.12772384
201	0x05	0.010136813
202	0xf6	-0.020273626
203	0x3e	0.12569648
204	0x25	0.075012416
205	0x3a	0.11758703
206	0xdd	-0.07095769
207	0xe3	-0.058793515
208	0xf0	-0.0324378
209	0x3d	0.12366912
210	0xe4	-0.056766152
211	0xeb	-0.042574614
212	0x3a	0.11758703
213	0x07	0.014191538
214	0x08	0.0162189
215	0xea	-0.044601977
216	0xca	-0.10947758
217	0x2e	0.09325868
218	0x4d	0.15610692
219	0x38	0.113532305
220	0xf0	-0.0324378
221	0xe4	-0.056766152
222	0xb3	-0.15610692
223	0xb3	-0.15610692
224	0x3b	0.11961439
225	0xbd	-0.1358333
226	0xf2	-0.028383076
227	0x14	0.04054725
228	0xdc	-0.07298505
229	0xe2	-0.060820878
230	0x2d	0.09123132
231	0x32	0.10136813
232	0xc1	-0.12772384
233	0x31	0.09934077
234	0xd2	-0.09325868
235	0x08	0.0162189
236	0xee	-0.036492527
237	0x37	0.11150494
238	0x47	0.14394274
239	0xed	-0.03851989
240	0x20	0.0648756
241	0xb3	-0.15610692
242	0xaf	-0.16421637
243	0x0f	0.030410439
244	0xea	-0.044601977
245	0xc1	-0.12772384
246	0xc1	-0.12772384
247	0xfb	-0.010136813
248	0x04	0.00810945
249	0xee	-0.036492527
250	0x2d	0.09123132
251	0x3a	0.11758703
252	0xd8	-0.0810945
253	0xb7	-0.14799747
254	0xf1	-0.030410439
255	0xb4	-0.15407956
